…
, 'White Pelican', 'White Throated Sparrow', 'Wilson Warbler', 'Winter Wren', 'Worm Eating Warbler', 'Yellow Bellied Flycatcher', 'Yellow Billed Cuckoo', 'Yellow Breasted Chat')

-----------------------model building is completed.-----------------------
Model: "model_1"
__________________________________________________________________________________________________
Layer (type)                    Output Shape         Param #     Connected to                     
==================================================================================================
input_1 (InputLayer)            (None, 4096)         0                                            
__________________________________________________________________________________________________
batch_normalization_1 (BatchNor (None, 4096)         16384       input_1[0][0]                    
__________________________________________________________________________________________________
dropout_1 (Dropout)             (None, 4096)         0           batch_normalization_1[0][0]      
__________________________________________________________________________________________________
dense_1 (Dense)                 (None, 2048)         8390656     dropout_1[0][0]                  
__________________________________________________________________________________________________
dropout_2 (Dropout)             (None, 2048)         0           dense_1[0][0]                    
__________________________________________________________________________________________________
dense_2 (Dense)                 (None, 1500)         3073500     dropout_2[0][0]                  
__________________________________________________________________________________________________
dropout_3 (Dropout)             (None, 1500)         0           dense_2[0][0]                    
__________________________________________________________________________________________________
dense_3 (Dense)                 (None, 2000)         3002000     dropout_3[0][0]                  
__________________________________________________________________________________________________
dropout_4 (Dropout)             (None, 2000)         0           dense_3[0][0]                    
__________________________________________________________________________________________________
dense_4 (Dense)                 (None, 1500)         3001500     dropout_4[0][0]                  
__________________________________________________________________________________________________
dropout_5 (Dropout)             (None, 1500)         0           dense_4[0][0]                    
__________________________________________________________________________________________________
dense_5 (Dense)                 (None, 1024)         1537024     dropout_5[0][0]                  
__________________________________________________________________________________________________
input_2 (InputLayer)            (None, 1024)         0                                            
__________________________________________________________________________________________________
add_1 (Add)                     (None, 1024)         0           dense_5[0][0]                    
                                                                 input_2[0][0]                    
__________________________________________________________________________________________________
dense_6 (Dense)                 (None, 800)          820000      add_1[0][0]                      
__________________________________________________________________________________________________
dropout_6 (Dropout)             (None, 800)          0           dense_6[0][0]                    
__________________________________________________________________________________________________
dense_7 (Dense)                 (None, 512)          410112      dropout_6[0][0]                  
__________________________________________________________________________________________________
dropout_7 (Dropout)             (None, 512)          0           dense_7[0][0]                    
__________________________________________________________________________________________________
dense_8 (Dense)                 (None, 512)          262656      dropout_7[0][0]                  
__________________________________________________________________________________________________
dropout_8 (Dropout)             (None, 512)          0           dense_8[0][0]                    
__________________________________________________________________________________________________
dense_9 (Dense)                 (None, 400)          205200      dropout_8[0][0]                  
__________________________________________________________________________________________________
dropout_9 (Dropout)             (None, 400)          0           dense_9[0][0]                    
__________________________________________________________________________________________________
dense_10 (Dense)                (None, 300)          120300      dropout_9[0][0]                  
__________________________________________________________________________________________________
dense_11 (Dense)                (None, 171)          51471       dense_10[0][0]                   
==================================================================================================
Total params: 20,890,803
Trainable params: 20,831,140
Non-trainable params: 59,663
__________________________________________________________________________________________________
Train on 4927 samples, validate on 2112 samples
Epoch 1/180

 512/4927 [==>...........................] - ETA: 30s - loss: 5.2388 - categorical_accuracy: 0.0039 - top_k_categorical_accuracy: 0.0273
…
4927/4927 [==============================] - 17s 3ms/step - loss: 0.6779 - categorical_accuracy: 0.7976 - top_k_categorical_accuracy: 0.9870 - val_loss: 0.1153 - val_categorical_accuracy: 0.9948 - val_top_k_categorical_accuracy: 1.0000

-----------------------model training is completed.-----------------------
-> zsl model is saved.

-----------------------zero shot model building is completed.-----------------------
Model: "model_2"
__________________________________________________________________________________________________
Layer (type)                    Output Shape         Param #     Connected to                     
==================================================================================================
input_1 (InputLayer)            (None, 4096)         0                                            
__________________________________________________________________________________________________
batch_normalization_1 (BatchNor (None, 4096)         16384       input_1[0][0]                    
__________________________________________________________________________________________________
dropout_1 (Dropout)             (None, 4096)         0           batch_normalization_1[0][0]      
__________________________________________________________________________________________________
dense_1 (Dense)                 (None, 2048)         8390656     dropout_1[0][0]                  
__________________________________________________________________________________________________
dropout_2 (Dropout)             (None, 2048)         0           dense_1[0][0]                    
__________________________________________________________________________________________________
dense_2 (Dense)                 (None, 1500)         3073500     dropout_2[0][0]                  
__________________________________________________________________________________________________
dropout_3 (Dropout)             (None, 1500)         0           dense_2[0][0]                    
__________________________________________________________________________________________________
dense_3 (Dense)                 (None, 2000)         3002000     dropout_3[0][0]                  
__________________________________________________________________________________________________
dropout_4 (Dropout)             (None, 2000)         0           dense_3[0][0]                    
__________________________________________________________________________________________________
dense_4 (Dense)                 (None, 1500)         3001500     dropout_4[0][0]                  
__________________________________________________________________________________________________
dropout_5 (Dropout)             (None, 1500)         0           dense_4[0][0]                    
__________________________________________________________________________________________________
dense_5 (Dense)                 (None, 1024)         1537024     dropout_5[0][0]                  
__________________________________________________________________________________________________
input_2 (InputLayer)            (None, 1024)         0                                            
__________________________________________________________________________________________________
add_1 (Add)                     (None, 1024)         0           dense_5[0][0]                    
                                                                 input_2[0][0]                    
__________________________________________________________________________________________________
dense_6 (Dense)                 (None, 800)          820000      add_1[0][0]                      
__________________________________________________________________________________________________
dropout_6 (Dropout)             (None, 800)          0           dense_6[0][0]                    
__________________________________________________________________________________________________
dense_7 (Dense)                 (None, 512)          410112      dropout_6[0][0]                  
__________________________________________________________________________________________________
dropout_7 (Dropout)             (None, 512)          0           dense_7[0][0]                    
__________________________________________________________________________________________________
dense_8 (Dense)                 (None, 512)          262656      dropout_7[0][0]                  
__________________________________________________________________________________________________
dropout_8 (Dropout)             (None, 512)          0           dense_8[0][0]                    
__________________________________________________________________________________________________
dense_9 (Dense)                 (None, 400)          205200      dropout_8[0][0]                  
__________________________________________________________________________________________________
dropout_9 (Dropout)             (None, 400)          0           dense_9[0][0]                    
__________________________________________________________________________________________________
dense_10 (Dense)                (None, 300)          120300      dropout_9[0][0]                  
==================================================================================================
Total params: 20,839,332
Trainable params: 20,831,140
Non-trainable params: 8,192
__________________________________________________________________________________________________


**************prediction*******************
 (3017, 300) [[2.432947   1.9908264  0.         ... 0.         0.         0.        ]
…
